January_parameters.npz (npz, 22885 bytes, 6 tensors)

W_i (column-major) f4 [120, 4]
00000000: 11a6 b03e 806f 61bc e8cd a83c 50b5 eabc
00000010: 2ce9 1cbd 009e 54be d814 5dbe 062a debd
00000020: 8b61 c5bd b117 4bbe 786f a6bd 2109 06be
00000030: bfa1 3ebe b6d4 20be 5f68 5bbe efc5 50bd
00000040: 4133 8c3e 0a87 8bbe ebdc 253e fa2c 083e
00000050: e458 ff3d 5361 153e 9015 79bc 122b 173e
00000060: fc67 0bbe a888 23be 64bc 1d3e 0050 7aba
00000070: c4c9 d1be 84ae dd3d 24b8 c13d ecfe f13d
00000080: 802b 073e 4feb a73e de50 0fbe 7b59 6fbe
00000090: 2a31 093e ba61 ae3e 56fe ac3d 4ff7 85bd
000000a0: 405e 1c3e d85d 50be 500a 30be b80a 163d
000000b0: 3815 f53d 07ab 08be f4bd dc3b 553b eabe
000000c0: a09f 183d 805f 5ebc 00a8 6ebc b7ce 14bd
000000d0: 3989 46be f59f 853d 342d 14be 12d6 fb3d
000000e0: f8b0 1dbd 40b4 8c3d 7078 0dbc 70b2 4f3e
000000f0: 3423 a5bd 94ed 873d 1832 a0bd 3005 213d
00000100: 0825 cbbc de20 d5bd 0e38 3f3e fe92 3d3c
00000110: ecf8 033e c078 bcbd 4859 a63d 500e 563e
00000120: 4adb 1f3e 2c7d 463e d559 883e 8916 133e
00000130: 58ea f13d 6a8e fbbd 3289 a43e 0175 09be
00000140: e4a7 a9bd ee69 4e3e 29f4 a5bd 013e 53be
00000150: 60a3 1f3d cd6b 083e 0fc6 083e a761 42be
00000160: b79c 833c 70b0 52be b2d4 063d a3f1 eebd
00000170: 70cf 01bc e8eb 18bd 4a60 303e 06f8 34be
00000180: 78fc 603d a4e2 33be c030 063d 7cb1 203e
00000190: d879 81bc d4d6 173d a451 ba3d fe47 083e
000001a0: 0020 773c e4da 31be 2a51 293e 9160 503d
000001b0: eae3 9abd a097 b33c a81c 10be a008 dbbc
000001c0: 709c d33d d7f8 1d3e 907c 2dbe dfc8 13be
000001d0: 60d6 423e e111 24be c0f1 e13d 9874 89bb
000001e0: d724 853e 9815 43be 7a33 2b3e f8af ebbc
000001f0: 3b42 0abe ebca 3c3e ac90 fb3d c073 393b
00000200: 265b 49be 7c28 5f3e 368c 4cbe ae00 0a3e
00000210: 7a3b c73d 88ca 413d a6b9 463e 3abc 8d3d
00000220: 2527 913e 476d 0c3e 205e b73d 7820 513d
00000230: 9af4 03bf 63cd 17be 90c5 b23c 38f2 57be
00000240: a824 19be e3f8 d3be f48b d3bd 1325 0bbe
00000250: 6724 25bf c809 01be 3012 b3bd 30c6 71bd
00000260: b29d 453e 4b35 453e 00bc cdbb 69c2 673d
00000270: 002e a0bd 3b5a c13e ad3e 5f3e 3f8b 3fbe
00000280: 7002 fe3c a897 6cbd b060 4c3d 18f3 063e
00000290: a034 63bc 36a3 0fbe e408 b83e 8abd 0ebf
000002a0: c0be 1f3d 167a 21be 20c6 2a3e a15d 133d
000002b0: 98da 27bd 3561 44bd 1c3a bc3d 3106 1e3e
000002c0: 0c59 063e 4c08 433e afd2 34be 509b de3e
000002d0: 408e 4abe 3cf6 61bd 1c2a 2a3e 646c 233e
000002e0: 1644 513e eec0 86bd e8aa abbd 7aeb 743e
000002f0: 1ccb e83d 7910 cebd feaf 4a3e 289d 92bc
00000300: 38fb 86bd c47a b53d 26be 983e 9bf6 14be
00000310: 7543 d2bd 3f15 613c 9fc2 b03e 5baf e7bd
00000320: b0fe d23c 63fe 5abe 808b 3fbe 39bc 5a3e
00000330: 60b5 313e d3f7 e0bd 768e f3bb cfec 4dbe
00000340: c21c 503e e2dc 31be 42d5 30be 40dc ba3d
00000350: 306b 173d 20d5 563d 7429 2ebe 98cb fb3d
00000360: f004 773d 80bf c5bd e2bb 5a3e 90bf 74bc
00000370: d3f2 5abe 664f 233e 4995 55be 383b 2fbd
00000380: 3e9c 383e b86c a0bd ad24 23be 49db 4a3e
00000390: eeb8 e0bd e8f8 933d de08 063e 3076 c93d
000003a0: 5111 b23b cf74 0abe 20f6 cc3d f7a2 453e
000003b0: 4489 0f3e 7906 dbbd 2039 213c 3894 3e3e
000003c0: 7b6f c73d 88bd 50be b525 f9bd 384d ea3d
000003d0: ec4f adbd 69f8 14bd 9f6c f9bd 43f8 53be
000003e0: 6664 4b3c c236 1dbe 5822 42be ca4f 43be
000003f0: fc09 7e3d 2413 8dbd 946a ab3d f8c7 383d
0.345017 -0.013759494 0.020605996 -0.02865091 -0.038308308 -0.20763397 -0.21589983 -0.10847859
-0.096377455 -0.19833256 -0.0812673 -0.1308942 -0.18616389 -0.15706143 -0.21426533 -0.050970014
0.27382854 -0.27251464 0.16197555 0.13298407 0.124681264 0.14587907 -0.015202895 0.14762524
-0.13613886 -0.15970099 0.15403897 -0.0009548664 -0.40974247 0.10824302 0.0945895 0.118162006
0.13200188 0.32796714 -0.13995692 -0.23373978 0.13397661 0.34058934 0.08446948 -0.06541311
0.15270329 -0.20348299 -0.17191434 0.036631316 0.11966938 -0.13346492 0.0067365114 -0.45748392
0.037261605 -0.013572574 -0.0145664215 -0.03632995 -0.19388284 0.0652465 -0.14470369 0.1229669
-0.03849885 0.068703175 -0.008634672 0.20282912 -0.08063355 0.06637111 -0.078220546 0.039311588
-0.024797931 -0.104066595 0.18673727 0.01157069 0.12887925 -0.09202719 0.08122498 0.20903897
0.15610996 0.19383687 0.26631036 0.14364065 0.11812276 -0.12283023 0.32135922 -0.1342354
-0.08283976 0.20157596 -0.081032105 -0.20629121 0.038974166 0.13322373 0.13356803 -0.18982564
0.016065938 -0.20575118 0.032917686 -0.11667182 -0.007922992 -0.037334353 0.17224231 -0.17672738
0.054928273 -0.17566925 0.032761335 0.15692705 -0.01580517 0.03707011 0.09097603 0.13308713
0.015083313 -0.17368656 0.16534868 0.050873343 -0.075630024 0.021922886 -0.14073431 -0.026737511
0.103325725 0.15426956 -0.16942048 -0.14432095 0.1902709 -0.16022445 0.11032438 -0.0041948073
0.2600467 -0.19051206 0.16718856 -0.028770432 -0.13501827 0.18436782 0.12283453 0.0028297752
-0.19663677 0.21792787 -0.19975361 0.13476822 0.09728141 0.04731229 0.19406757 0.06920667
0.28350177 0.13713561 0.089535 0.051056355 -0.5154511 -0.14824443 0.02182272 -0.21088493
-0.1495539 -0.41400823 -0.10329428 -0.13588361 -0.6450867 -0.12601388 -0.08743703 -0.059026897
0.19298437 0.19258611 -0.006278515 0.05658189 -0.07821274 0.37764153 0.21801253 -0.18705462
0.031007022 -0.05776182 0.049896896 0.1317867 -0.013867527 -0.14027104 0.35944283 -0.55757964
0.039000273 -0.15769228 0.16677141 0.035977963 -0.04097995 -0.047944266 0.09190771 0.1543205
0.13119906 0.19046134 -0.17658494 0.4347787 -0.19780827 -0.055166468 0.16617626 0.15959316
0.20436129 -0.06579767 -0.08382207 0.23917952 0.11366865 -0.10061736 0.19793698 -0.017897204
-0.06590885 0.08861306 0.29832572 -0.14547198 -0.10266773 0.013737976 0.34523484 -0.11312743
0.02575621 -0.21386103 -0.18705559 0.21360864 0.17354345 -0.10984769 -0.007432754 -0.20109867
0.2032347 -0.17369416 -0.17268851 0.091240406 0.036967456 0.052449346 -0.17008 0.12294692
0.060307443 -0.09655666 0.21360734 -0.01493825 -0.21381693 0.15948257 -0.20857729 -0.042781085
0.18028352 -0.078332365 -0.1593196 0.19810213 -0.109727725 0.072252095 0.1308932 0.098369956
0.005434193 -0.13521121 0.10007882 0.19300447 0.14017206 -0.10694594 0.00984028 0.18611228
0.0973806 -0.203848 -0.12165395 0.114405096 -0.084625095 -0.036369715 -0.12178921 -0.20700173
0.012414074 -0.1535292 -0.18958414 -0.19073406 0.06202124 -0.068884164 0.083699375 0.04511258

b_i f4 [120]
00000000: a171 bdbd 0000 0000 0000 0000 0000 0000
00000010: 43e0 96a0 864b 9bbc 0000 0000 0000 0000
00000020: 36cf 8a3c 0000 0000 acda 9a29 0000 0000
00000030: 1e4c 8b3c c907 35a5 0000 0000 b153 0b3d
00000040: 50f0 433b 556e 163d bb5a 04ba 0000 0000
00000050: 7064 e53d 0ad2 0f3d 0000 0000 fb6b 1aad
00000060: 0020 4dac a638 a6bb 0000 0000 159a 8320
00000070: c135 333e 0000 0000 0ec3 272b 0000 0000
00000080: 1502 953c 027e 163c 0000 0000 183e ba3c
00000090: 0000 0000 a264 74bd 07b5 4c37 93f4 c23c
000000a0: 0000 0000 15c5 fea8 21b0 edbc 0000 0000
000000b0: 0000 0000 2e31 7c3e 8c58 06bc 9b5c b7bd
000000c0: 0000 0000 0000 0000 582c efa4 d6a2 b5bb
000000d0: 1c5d aabc 046f b93b 0000 0000 af37 2bbd
000000e0: 0000 0000 d715 2aa9 4b8f 6ba8 6e07 b63c
000000f0: a290 9f26 0000 0000 4f1f d113 0000 0000
00000100: 477a 9c16 0000 0000 d5ca 923c 4944 adbc
00000110: 0000 0000 606e 9c3c 0000 0000 0000 0000
00000120: e131 9413 883c 18a6 d7c7 2cbe eb9f efbc
00000130: d324 052c 6bb5 e937 ad62 afbb 0d31 4f3e
00000140: 0000 0000 4d43 0d36 f696 033d de57 6936
00000150: 6cd2 b79e e0e9 783c 99a4 9a3b 8cd3 17bd
00000160: ecca 6d3c 0000 0000 71cf 573d 0000 0000
00000170: ed13 4b17 0000 0000 237e c53c 0000 0000
00000180: 0000 0000 0000 0000 0000 0000 3322 85ac
00000190: 854b 8c31 5939 273d 0000 0000 ec03 c8a8
000001a0: 0000 0000 0000 0000 0000 0000 ac53 b8ba
000001b0: 0000 0000 0000 0000 72b3 04ac 0000 0000
000001c0: 9eba 52b8 b5b2 a037 0a84 a8a1 06cc ee3c
000001d0: 9499 e219 af02 3f3c 0000 0000 3e0d 82bc
-0.092501886 0.0 0.0 0.0 -2.5559392e-19 -0.01895691 0.0 0.0
0.016944509 0.0 6.8769074e-14 0.0 0.017004069 -1.5701885e-16 0.0 0.03401536
0.0029897876 0.036726315 -0.000504892 0.0 0.112007976 0.03511242 0.0 -8.777863e-12
-2.9150016e-12 -0.005072671 0.0 2.2294226e-19 0.17500974 0.0 5.960101e-13 0.0
0.01818947 0.009185316 0.0 0.022734687 0.0 -0.059666283 1.2201496e-05 0.023798263
0.0 -2.8285136e-14 -0.029014649 0.0 0.0 0.24628136 -0.008199822 -0.0895321
0.0 0.0 -1.0372485e-16 -0.005543093 -0.020796351 0.005658986 0.0 -0.04180115
0.0 -3.7766526e-14 -1.3076192e-14 0.02222034 1.1072044e-15 0.0 5.278989e-27 0.0
2.5280327e-25 0.0 0.017918983 -0.021150725 0.0 0.0190956 0.0 0.0
3.7409637e-27 -5.281763e-16 -0.16873108 -0.02925106 1.8920878e-12 2.7860244e-05 -0.0053523392 0.20233555
0.0 2.1049811e-06 0.03212639 3.477085e-06 -1.9462907e-20 0.015192479 0.0047193286 -0.03706698
0.014513712 0.0 0.052688066 0.0 6.5617988e-25 0.0 0.024107998 0.0
0.0 0.0 0.0 -3.7838842e-12 4.083122e-09 0.040826175 0.0 -2.2206161e-14
0.0 0.0 0.0 -0.0014063022 0.0 0.0 -1.885794e-12 0.0
-5.0241702e-05 1.9156703e-05 -1.1419073e-18 0.02915002 2.3429882e-23 0.011658355 0.0 -0.015875455

W_h (column-major) f4 [40, 120]
00000000: 90c5 8a3f aa13 1c3f 436f cebf e84a d83f
00000010: a473 fcbf d051 0cc0 c89d 373f f643 f2bf
00000020: 5e31 e8bf 08e6 783f a7f1 16c0 86b3 e93f
00000030: b106 0d3f 9ba5 3e3e cadf 1440 0392 9b3d
00000040: 698f 1440 81b8 99bf 3d33 803f 9bd6 3fc0
00000050: 16fa 2b3f 051a aabf a4a9 ab3f d0a5 20c0
00000060: 46a4 f4be ddfa e53f 141b 643f faba a83f
00000070: 2bc5 d5bf 315b bc3f 86fe 37c0 21f0 cfbf
00000080: 9714 d1bf 5c48 1dc0 2cba ba3f c920 c9bf
00000090: e203 1cc0 aeac f7bf 10c8 f5bf b5bb d33e
000000a0: 5af2 be3c 3755 d8bd 4958 22be 76d2 23bd
000000b0: b429 92bc e371 263e 1a7c 50be da84 4c3e
000000c0: ddc8 9abc d5c4 9bbd 736c 233d 20aa 09bc
000000d0: e018 97bd 2469 c9ba 0e40 5fbd 3d0d ebbd
000000e0: ce4a eabb e01b 7f3d 70b7 46bc befa 3d3e
000000f0: c582 afbd 729d e03d c03b 953c 48f0 ddbd
00000100: 4a8c 193e 80e7 f0bd 7755 6ebe df65 19be
00000110: e403 1d3d 8a68 933d a331 353e 2b0a 3dbe
00000120: 3ee5 e8bb 411d 5e3e be79 0f3e 623a 28be
00000130: 9776 e9bd 988f f53c 9e07 8a3d c972 f43d
00000140: d834 33bd 2713 11be 6ce0 1f3e 70ce 9c3d
00000150: 50e7 f73d 54ca 933d f42e 9b3d 048d 0e3e
00000160: 6c55 07be 38e5 7d3d cccd 66bd 58f2 873c
00000170: 2875 9c3d 38ad 363e 6f80 40be b531 a4bd
00000180: 34ac c33d 6c2a 3dbd 6203 bcbd 5c0b 3ebd
00000190: d41d d13d d4d5 16be eb67 33be 18a7 b0bc
000001a0: dab2 88bd 84b2 c93d 9678 19be 810c e4bd
000001b0: 391d 2bbe 2c0f 403e 741c 8e3d 4838 1f3e
000001c0: 3bb0 1ebe b7b2 16be 9f57 40be f804 bc3c
000001d0: 1868 e2bd 4bb8 3bbe 253a adbd bfdf 18be
000001e0: b12d 883d f41d 71be 3329 81bb 1c5a 17be
000001f0: 4e35 073e 892a 0c3e 1480 ad3d 65e4 4a3e
00000200: 6c19 c5bd b505 08be 62e4 f23d 0c00 9d3d
00000210: 5768 4dbd a1eb 8a3c 4e7d 50be c825 a4bd
00000220: 4f6e 11bc 0961 4e3e dd8d a13a 7e18 523e
00000230: 064b 3d3d 9b3c da3d 10fd d53d fff2 133c
00000240: a172 153e 544b 5b3d e8ac c13c 01ca cabd
00000250: 5a5c 2b3e 8143 e9bd 3514 513e 59f8 333e
00000260: ac9f 20be 0263 17be 7916 65be 2b23 593e
00000270: 3943 203e 96d2 e0bc c475 c4bc 8616 ddbd
00000280: f401 25be 703e 05be c39c 15be 2775 a23b
00000290: ef59 cbbd 55b5 08be d7c3 5a3d 4037 31bd
000002a0: 87fc 85bd b515 713d 46aa f93d 613c c83b
000002b0: 7361 2a3e c2b5 0a3e b0c6 e23d b757 c93d
000002c0: c57d b0bd ad8a f13d 6b81 bcbd 2cbd 4f3e
000002d0: 37cb 33bd 46ce f9bd b49f 03be a42f 9abd
000002e0: 2972 df3b 2ef7 473e 01ee 3bbe 5f84 1fbd
000002f0: 03c4 d4bb 2e61 35ba d39b d9bd 83da 383e
00000300: 5354 a13c 8e00 53bd 32d0 39bb 5077 37be
00000310: c3f4 553e acce 34be 70b8 46bd cea1 8bbd
00000320: 3a8c f23c 385d da3d 5d31 6c3c 940c 0c3d
00000330: d217 93bd 3c57 74bd e4d3 7bbe 660f 33bd
00000340: 2984 6fbc fd66 1b3e 43df 0abe 7d17 103e
00000350: 660e fbbd 5291 a93d 103f 05be bf14 d43d
00000360: 8119 243c 37e2 293e cbbf c3bd 826b 213e
00000370: 6cfd 35bd 4710 2c3d db81 a63d 119d 303e
00000380: 1801 30be aea9 97bd 94ea 32be 7717 4fbe
00000390: db85 133e 240b 5fbe e7cf b13d 2f01 aebd
000003a0: 9e89 18bd 4d29 e13d 04b5 433e 53cd 523e
000003b0: b6ee 5a3e 038d 113d d24c c83c fc1c 9c3c
000003c0: d36e a3bd 82ee 1cbe c259 85bd da31 9ebd
000003d0: 3420 233d c899 c43d 9637 353e 4034 abbb
000003e0: 60c7 9ebb 8e2b 09be 0ce6 6ebd 7da9 acbd
000003f0: e86f 053e 25db 45be 4057 61bb 20e1 453e
1.0841541 0.60967505 -1.6127704 1.689786 -1.9722791 -2.1924934 0.7172513 -1.892699
-1.8140066 0.97226 -2.3584993 1.8257911 0.55088335 0.18617861 2.326159 0.07596209
2.321253 -1.2009431 1.0015637 -2.9974735 0.67178476 -1.328919 1.3411145 -2.5101204
-0.4778158 1.7967182 0.8910382 1.3182061 -1.6700796 1.471533 -2.8749099 -1.6245157
-1.6334409 -2.4575415 1.4588065 -1.571313 -2.437737 -1.9349573 -1.9201679 0.41354147
0.023308922 -0.105631284 -0.1585399 -0.039995633 -0.017842151 0.16254382 -0.20359841 0.19972554
-0.018894607 -0.07605902 0.039898347 -0.008402377 -0.073777914 -0.0015366417 -0.054504447 -0.114771344
-0.0071500307 0.062282443 -0.012128696 0.18552682 -0.08569864 0.1096753 0.018216968 -0.10836846
0.14994922 -0.11762905 -0.2327479 -0.14980267 0.03833379 0.071976736 0.17694716 -0.1846091
-0.007107406 0.21690847 0.14011285 -0.16428521 -0.11399572 0.029975697 0.06739734 0.11935956
-0.043751568 -0.14167462 0.15612954 0.07656562 0.12104666 0.072163254 0.07577315 0.1392098
-0.1321618 0.06198618 -0.056348607 0.01659505 0.07639533 0.17839515 -0.18798994 -0.08017293
0.095543295 -0.046183035 -0.09180333 -0.046397552 0.102107674 -0.14730006 -0.1752011 -0.021564052
-0.06674738 0.09848502 -0.14987406 -0.111351974 -0.16710366 0.18755788 0.06939021 0.15548813
-0.15496914 -0.14716612 -0.18783425 0.022951588 -0.110550106 -0.18332021 -0.08458356 -0.14929102
0.0664934 -0.23546582 -0.003941679 -0.14780468 0.13203928 0.13688101 0.084716946 0.19813688
-0.096239895 -0.13283427 0.11859967 0.076660246 -0.050148334 0.01695806 -0.203603 -0.08015019
-0.008876397 0.20154203 0.0012325604 0.20517156 0.046214126 0.10656091 0.104486585 0.009030103
0.14594509 0.053538635 0.023642018 -0.099018104 0.16734448 -0.113898285 0.20417865 0.17575206
-0.1568591 -0.14783862 -0.22371854 0.21204822 0.15650643 -0.027444165 -0.023981936 -0.10795312
-0.16114026 -0.130121 -0.14610581 0.0049578133 -0.09929263 -0.13350423 0.053409424 -0.04326558
-0.065423064 0.058858592 0.1219068 0.0061107134 0.16638736 0.13545898 0.11073053 0.098311834
-0.08617739 0.117940284 -0.09204372 0.20287007 -0.043894973 -0.12197547 -0.1285389 -0.07528618
0.006819029 0.19527885 -0.1835251 -0.0389446 -0.006493093 -0.0006919083 -0.10625424 0.18052106
0.01969353 -0.0515142 -0.0028352854 -0.17916608 0.2089415 -0.17656964 -0.048515737 -0.06817971
0.02960788 0.10662311 0.014416066 0.034191683 -0.07182278 -0.059653506 -0.24592549 -0.043715857
-0.014618912 0.15176006 -0.1356173 0.1407146 -0.12258606 0.08279671 -0.13012338 0.103555195
0.010015846 0.165902 -0.09558066 0.15763667 -0.044431135 0.04200771 0.08130237 0.17247416
-0.17187917 -0.07405411 -0.17472297 -0.20223795 0.1440653 -0.21781594 0.08682232 -0.084963195
-0.037240617 0.109942056 0.1911202 0.20586137 0.21380123 0.03553487 0.024450693 0.01905679
-0.079801224 -0.15325359 -0.065112606 -0.07724352 0.039825633 0.09599644 0.17696986 -0.0052247345
-0.0048455447 -0.13395521 -0.05832486 -0.08430765 0.1303097 -0.19321878 -0.003438428 0.1932416

b_h f4 [40]
00000000: f18d 5a3d 3ebb f9bd 3fb2 393d 0264 67bd
00000010: c959 9b3d de72 5f3d 65b1 b43c ff93 0a3d
00000020: a21f bf3c 9af5 4fbd d42e 7cbc d3c0 2fbc
00000030: f7bb 62bd 56fc 85bd 3e2a 1abd 6d71 a73c
00000040: 1e35 16bd ab4c 9c3d b974 b9bc 4cd8 f83d
00000050: f326 eebc eb53 e73d 942d 9f3b 1f64 df3c
00000060: 2f7f f03c e250 423d ea22 a03c f1c4 963c
00000070: 579b 2c3d 9fe9 db3b b91b c03c 0385 933d
00000080: 1dae 93bc a599 033d 25b1 4dbd 3f3f f93c
00000090: 8ae5 e63d a668 813d 2480 28bd cc91 543c
0.053358022 -0.12193917 0.045336004 -0.05649186 0.075854845 0.054552905 0.022057245 0.033832546
0.023330513 -0.050771333 -0.015392024 -0.010727125 -0.05535504 -0.0654227 -0.03763794 0.020439828
-0.03667175 0.07631811 -0.022638666 0.1215063 -0.029071307 0.11295303 0.0048577283 0.027269421
0.02935752 0.047440417 0.019547898 0.018404456 0.04214033 0.0067111994 0.02345072 0.07203104
-0.01802736 0.03212895 -0.050217766 0.030425666 0.1127425 0.06318788 -0.04113783 0.012974214

W_o (column-major) f4 [9, 40]
00000000: 65a8 0bc0 5750 ba3e 748c 4e3e 4301 273f
00000010: 3c2b d9bf e073 85bf aa10 523e d965 053f
00000020: c65d e73e 40c6 693f 6b85 b2bf 105d 673e
00000030: a347 2c3f fbc2 d43e f026 13bf cd47 2b3e
00000040: 3fe3 afbf e2af 8c3c af75 e8be a8c5 2e3f
00000050: b0cb 2a3f 2eb2 c4bf 369e 68bf 39a0 573f
00000060: 1dbb b0bc c71a c2bf cec3 683f 2376 173f
00000070: 9798 98bf b969 40bf 1979 a03f 8006 183f
00000080: 8bd4 a1bf f053 e83d fc5e 6cbf 8776 1cbf
00000090: bc9f edbf 73f3 633f 37cd 833f f315 00c0
000000a0: 87a2 c4bf ee0f 43be 557e 32bf f7c2 5f3f
000000b0: c994 ac3e 4faa a83f a2ad 333f 5b74 41bf
000000c0: d172 d7bf a8d4 e6bf 8515 593f 0dbf 0d3e
000000d0: 9530 173f 8ebc ccbf 13ec bbbf c21c 183f
000000e0: 8c67 0e3f 5073 913f f15d 9e3f bf27 a8bf
000000f0: 137d 4ebe 5a19 2b3f 5c65 03c0 fb47 9b3f
00000100: 3c08 92bf 55c8 cbbf 185d c3bf cecc 3e3f
00000110: 1189 fa3e d5eb 063f c3bc 863f c781 bdbf
00000120: d8a1 43c0 b641 bebd 4231 e83e b2d1 86bd
00000130: f316 32bf f0f9 53bf 7d2c da3e 6001 d03e
00000140: 790f 0fc0 b1ae 853f 6c48 b0bf 849b 3dbe
00000150: fa81 dd3e 731d d4bf 9669 5bbf a748 d43e
00000160: f80e 713e 5c88 0d3f 766d 633f 439d 99be
00000170: fc03 b33e 5b1f 01c0 54c1 453f c566 243f
00000180: 51eb 43be 0c8e a8bf db54 60bf 52f9 43bf
00000190: 1848 94bf 3850 46bf db5c 553f 8fee 543f
000001a0: ec4b c4bf fc63 c63d 337e a83e 0904 7d3f
000001b0: 064f 8fbf e68a d1be e19b 983f 948d 483e
000001c0: 6b8d f7be dac6 fa3d c312 c6be aaf1 45bf
000001d0: 7b42 6c3e 801e b4bf ee11 a6bf 60e9 593f
000001e0: b18a 503f 81d6 a7bf 6697 b6bd 9dc2 933e
000001f0: 6d70 c1bf d6b7 7cbf 5aba ecbd a0c9 d63b
00000200: 49c3 69be 287b 3c3f 4d15 793f 1cfd 83bf
00000210: 019e 82bf e281 f23e 0735 823f df16 bf3f
00000220: fc0f b0be 5b21 85bf 58a3 a1be 7ebf 93bf
00000230: bee7 383f 16a7 30be 0b8e 583f 8989 85bf
00000240: 34a4 9a3e 7b90 97bf c3fc 41bd bbaf 9e3f
00000250: 1b2f 80bf 9a20 9f3d 3ccb 2abf f55c 163f
00000260: a2ef 313f 78cd f1bf 738b 6b3f 09ca 0cbc
00000270: 717d 0fbf 5ae4 c6bf c9d1 8dbf 0213 9dbd
00000280: 6315 07be 0817 a73f 0a66 c0bf c667 e8bf
00000290: db7f 0e3f 3430 443f 35be 9abf 2404 8fbf
000002a0: 0fbb 9b3e 1414 c1bf c8bc c23e a7f0 0bc0
000002b0: 5f92 223f 17f6 a03e 611d 4dc0 bd0d 4e3f
000002c0: 1ce8 773e 00aa 4e3e 478a 0bc0 c9ba 5bbe
000002d0: 2b51 b4be eee1 d3bf c604 e93c 5f64 2d3f
000002e0: dd68 443f 06d8 7d3e 1c15 463e 28fd e63e
000002f0: 4f5b 05c0 e80b a6be 0ce2 493f fcb3 62be
00000300: 0c5d 00c0 0c5e 083f f5e1 843f b3c9 52bf
00000310: 31a7 263f fe0c aebf 4ea5 893f 7a7e 2b3f
00000320: 0e91 98bf 8b28 823f bb28 393f 7d28 24bf
00000330: e672 853e ee8b b8bf be24 7dbf e8c8 473f
00000340: 48ba 80bf fe94 2a3f 208e 6ebf 4698 c3bf
00000350: 3400 363f 6300 b53e a5c8 dbbf 1e6e 84bd
00000360: 6f85 183f 0523 ad3e 8e18 87bf 9f8f 8ebf
00000370: c7e0 083f c692 2d3f 3878 b6be a66f 82bf
00000380: 22cd a43f 7dca 26bf 81ee e33e 8725 12bf
00000390: db74 823f 8e1f c0bf 30ba 8ebf 47e0 933e
000003a0: 3ab2 4e3d 20aa 063f 1813 c23f 2e46 293f
000003b0: ee39 69bf da65 1bbf 9798 6a3f d61f a1bf
000003c0: 9791 42bf 629c eebe 7877 bc3f 730e be3f
000003d0: 9281 cf3e 3e76 e9be bc4d 10bf 4b7f b1bf
000003e0: 15dd 123f ab2b a9bf 8d6a 413f a5ae 773f
000003f0: 6e37 f7bd 99f7 92bf 8aa5 59bf 000e dbbf
-2.182153 0.3638942 0.20170766 0.652363 -1.6966319 -1.0425987 0.2051417 0.5210853
0.4518873 0.9131813 -1.3946966 0.22594094 0.6729681 0.41555008 -0.5748129 0.16726609
-1.3741225 0.017173711 -0.45402285 0.6827035 0.6671705 -1.5366876 -0.9086641 0.84228855
-0.021573598 -1.5164422 0.90923774 0.5916464 -1.1921567 -0.7516132 1.2536956 0.5938492
-1.2642988 0.11344135 -0.92332435 -0.6111836 -1.8564372 0.8904335 1.0297002 -2.0013397
-1.53621 -0.19049045 -0.6972402 0.8740687 0.33707264 1.3176974 0.7018682 -0.7556817
-1.6831914 -1.8033648 0.8479846 0.13842411 0.59058505 -1.5995042 -1.4681419 0.5941888
0.5562675 1.1363316 1.2372419 -1.313713 -0.201649 0.6683556 -2.0530615 1.2131342
-1.1408763 -1.5920511 -1.5262785 0.7453126 0.48932698 0.527036 1.0526356 -1.480523
-3.0567532 -0.09289877 0.4535008 -0.06582965 -0.6956627 -0.8280325 0.42612067 0.4062605
-2.2353194 1.0443937 -1.3772101 -0.18516356 0.43263227 -1.6571487 -0.85707986 0.4146168
0.23540866 0.5528619 0.888389 -0.30002794 0.34963977 -2.0175388 0.7724812 0.64219314
-0.19132735 -1.3168349 -0.8762948 -0.7655231 -1.1584501 -0.77466154 0.8334481 0.8317651
-1.533567 0.09687039 0.32908782 0.9883428 -1.1195991 -0.40926284 1.192257 0.19585258
-0.4835008 0.12244959 -0.3868619 -0.77321875 0.23072235 -1.4071808 -1.2974222 0.85121727
0.81461626 -1.3112336 -0.08915596 0.28859416 -1.5112435 -0.9871801 -0.11558981 0.0065547973
-0.22828402 0.7362542 0.9729813 -1.0311618 -1.0204469 0.47364718 1.0172433 1.4928855
-0.34387195 -1.0400804 -0.31569934 -1.1542814 0.7222861 -0.17251238 0.8459174 -1.0432597
0.30203402 -1.1840967 -0.047360193 1.2397379 -1.0014375 0.0776989 -0.6671636 0.5873559
0.69506276 -1.8890829 0.9200966 -0.008593091 -0.56050783 -1.5538437 -1.1079646 -0.07669641
-0.13191752 1.3053904 -1.503114 -1.8156669 0.5566384 0.7663605 -1.2089297 -1.1173139
0.30416152 -1.5084252 0.38034654 -2.1865633 0.63504595 0.31437752 -3.2049181 0.8048971
0.24209636 0.20182037 -2.1803148 -0.21457972 -0.35218176 -1.6553323 0.028444659 0.6773128
0.7672251 0.24789438 0.1934399 0.45115018 -2.083698 -0.3243096 0.78860545 -0.22138971
-2.0056791 0.53268504 1.0381457 -0.8233902 0.65098864 -1.3597715 1.0753572 0.6698986
-1.1919267 1.0168623 0.72327775 -0.6412428 0.26064223 -1.4417703 -0.9888419 0.78040934
-1.0056849 0.66633594 -0.93185616 -1.5280845 0.7109406 0.35351858 -1.7170607 -0.06466316
0.59578604 0.3381578 -1.0554368 -1.113758 0.53467983 0.67802083 -0.35638595 -1.0190322
1.2875102 -0.6515272 0.44517902 -0.5708851 1.0191911 -1.500963 -1.115057 0.28882048
0.05046294 0.5260334 1.5162077 0.6612271 -0.9110402 -0.6070229 0.91639084 -1.258784
-0.760034 -0.46603686 1.4723959 1.484816 0.40528542 -0.45598024 -0.56368613 -1.3866972
0.57368594 -1.3216451 0.7555321 0.9675086 -0.12071119 -1.1481811 -0.8501822 -1.7113647

b_o f4 [9]
00000000: fc60 143e 74fb 5bbe 43e7 1e3e ba68 4c3d
00000010: 974e 6cbd 6781 a63d 8799 35be 0d43 49be
00000020: 7beb 9dbd
0.14490122 -0.2148264 0.15517907 0.049904563 -0.057692137 0.0813015 -0.17734347 -0.19654484
-0.0771093
